app/models/ml/model4.pt (torch, 134931 bytes, 3 tensors)

net.0.weight f4 [128, 257]
00000000: 8cb5 ccbd 469b 13be 754a 8f3c 3588 633d
00000010: f4a4 733c 8e5b 94bd de14 18be 0f81 b4bd
00000020: 5bd3 1bbd 9371 d3bc d7f9 92be fbe4 c0bd
00000030: daae 66bd 134e 30be adf3 d13c c8e4 6abd
00000040: 07db 0ebe cdf6 aabd 9764 ecbd a9ac cabd
00000050: b330 8fbd da01 6abd 5dec 99ba fab6 263b
00000060: b764 1abd e3ac 4b3d 4d73 f23c 6958 773d
00000070: 0796 afbd fb27 5a3d 1f49 d0bd fefd ffbd
00000080: f8a7 50bd 68b3 08be ee44 753d 9563 54be
00000090: 42c6 14be 929a 2dbe 6728 40be 736b 84bd
000000a0: 8b20 9abd 2887 a8bd 8f52 f7bd 4ee7 0f3c
000000b0: a2ed c7bb ce37 3dbe 0027 14be d6f8 21be
000000c0: 6c55 87be 3c12 73bd d715 25bd d799 14be
000000d0: ad14 c7bd ced4 e2bd 11fa e7bd 255e 5bbd
000000e0: b0bd 17bd ad4b 153c 11f1 f4bd 32fe ccbd
000000f0: 89af a6bc 2558 fbbd bd7b 533c 9d78 a7bd
00000100: 09cc 62bd b487 89bd d732 bebc 30c9 c3bb
00000110: 8986 00bd ea22 983c 9551 893c 8000 13be
00000120: 6368 793d 40cf 8ebd 0cdc 3c3d b330 aabc
00000130: f053 4abd 557e d3bd 7794 5bbd b1e1 953c
00000140: 97cc 38bd 91fd eabd 5b4d f7bd cdc2 c6bc
00000150: 0fde d4bd 6192 dbba 0352 abbd 786a 473d
00000160: f294 4bbd 053d 5ebd 465f f0bd a284 cfbd
00000170: 119b 11be 0922 0cbd b72e 20be 1a38 19bc
00000180: 0534 f3bc feeb 9c3c 22b7 1cbd f03a 08bd
00000190: 8799 4fbd 0896 45bd 4365 03be a184 8cbd
000001a0: 895a 3ebd 4b4d ae3c 2956 1bbe b8ee 463d
000001b0: 1f99 783d bba8 da3c 5451 aebd 2740 a7bd
000001c0: 034b 5abd 7aae 07be 3850 5e3d 0585 96bd
000001d0: 97c5 4cbd b151 b3bd 3579 cd3c f34a 45be
000001e0: 89b6 acbd 1d06 2cbe 35a0 e3bd 2e30 f13c
000001f0: 18d4 6ebd 4e09 bfbd 30c1 b6bc ac03 11bd
00000200: 8018 a23d c115 253e e7ea fa3c 7875 023e
00000210: ead8 863d c90a c73d a960 d03d d0d9 f23c
00000220: 8913 c83d 75fd 273e 12b6 263e b76a 293e
00000230: d55d f73d 42e8 a63d e93d e73d e7d2 163e
00000240: 50ac ae3d 71c0 d43d 40db 513c 7bd9 053d
00000250: d8f1 1c3e ee26 803d 06db b63d 3c2e 2a3e
00000260: ad51 f93d 2a8c fc3d 9306 6c3d 29db 873d
00000270: bcae ec3d 034f 723d a8ab af3d e25f 5a3d
00000280: 04b0 173e 1308 c53d f024 e13d eb69 043e
00000290: d29f 013e ded2 9b3d ed4f 333d ba49 093e
000002a0: c2d6 703d 1d09 ac3d 77a3 1d3e 90fb e53d
000002b0: 9172 053d abe4 563d 169e cc3d cffb cf3d
000002c0: 0c2a 8c3d 6b53 023e 40bf 163e 2f72 053e
000002d0: 598c c73d 6f5d 593d 678a 963d 4821 7a3d
000002e0: 7cae b33c d9f4 f53d 74e1 d83d 41f0 c53d
000002f0: 39a5 ca3d cc84 993d 2573 c93d eab2 ad3d
00000300: bb32 a03c 1cc3 e73d 7ec0 0f3d 8132 b43d
00000310: 81e6 883d c2a3 1f3e bd7f 073e 5064 263d
00000320: ae48 bd3d f1d3 0b3e e7f1 913d 38aa 793d
00000330: 29f8 273d 4c84 8f3d c673 aa3d a28d 1c3d
00000340: 2a4c 033e 9a0b 653c 50ce 1c3d 4991 123d
00000350: 633c 5b3d ea25 423d 8fdd ce3d 60d1 e93d
00000360: be39 233e 6cf9 023e 0a8f 313c e623 a83d
00000370: 8625 023c 0c88 8f3d d179 c13d c87c bf3d
00000380: ece6 c43d 6861 133e 5063 bb3d bc82 bc3d
00000390: 330e 0b3e 5583 0b3d 6d90 413d 8686 873d
000003a0: 9d03 093e 6e18 773d 3576 403d 3da9 183e
000003b0: ad3d 993d cede 393e a147 823d 209d a63d
000003c0: ab4a 923d 7145 393d 1644 233e cfb2 633d
000003d0: 7a11 1e3d 7965 a93d 5b69 9e3d 2a3f 093e
000003e0: a483 023e 1df7 5f3d 139f 833d d61e bb3d
000003f0: 2486 e23d 13d6 953d adb9 543d bc2c c13d
-0.09995565 -0.14414701 0.017491559 0.05554982 0.014870871 -0.07244025 -0.1485171 -0.088136785
-0.03804336 -0.025810992 -0.28706238 -0.094186746 -0.056319095 -0.17217283 0.025628889 -0.05734709
-0.1395074 -0.08347855 -0.115426235 -0.098962136 -0.069917105 -0.057130672 -0.0011743415 0.0025438652
-0.037693705 0.049725424 0.029595995 0.06038705 -0.08573537 0.053260785 -0.10170197 -0.12499617
-0.050941437 -0.13349688 0.05988019 -0.20741113 -0.14528754 -0.16953495 -0.18765412 -0.06465807
-0.07525738 -0.08228904 -0.12076294 0.008783175 -0.006101326 -0.18478319 -0.14468002 -0.1581758
-0.2643236 -0.05934356 -0.04030403 -0.1451181 -0.097207405 -0.110757455 -0.11326993 -0.05355658
-0.037046134 0.009112281 -0.11960042 -0.100094214 -0.020347374 -0.122726716 0.0129079195 -0.08177302
-0.055370364 -0.067153364 -0.023217602 -0.005974911 -0.031378303 0.018571336 0.016762534 -0.1435566
0.060890567 -0.069731236 0.04610829 -0.020775175 -0.049396455 -0.1032683 -0.053608384 0.018296095
-0.045116987 -0.11474145 -0.12075301 -0.02426281 -0.10393917 -0.0016751998 -0.08365252 0.04868552
-0.049702592 -0.05425741 -0.11736922 -0.101327196 -0.1421931 -0.034212146 -0.1564282 -0.009351755
-0.02968789 0.019155499 -0.038260587 -0.033259332 -0.050683524 -0.048238784 -0.12831597 -0.068612345
-0.04647306 0.02127709 -0.15169586 0.048567504 0.060692903 0.026691785 -0.08511606 -0.08166533
-0.053294193 -0.13250151 0.05427572 -0.0734959 -0.049993124 -0.08755816 0.02508221 -0.19266872
-0.08433253 -0.16799207 -0.111145414 0.02944192 -0.058307737 -0.093279466 -0.022308916 -0.035403892
0.07914829 0.1612158 0.030629588 0.12740123 0.06584342 0.09718854 0.101746865 0.029644877
0.09769351 0.1640528 0.16280392 0.16544615 0.12078444 0.081497684 0.11291105 0.1472889
0.0852896 0.10388268 0.012808621 0.03267811 0.15326631 0.06257425 0.08928494 0.166192
0.121737815 0.12331422 0.057623457 0.06633598 0.115567654 0.059157383 0.08577663 0.053314097
0.14813238 0.09620681 0.109933734 0.1293103 0.12658623 0.07608579 0.043777395 0.1340703
0.05879856 0.08400176 0.15394388 0.11229622 0.032579962 0.05246417 0.0999109 0.101554506
0.06843957 0.12727134 0.14721394 0.13031839 0.09743566 0.05306762 0.07350617 0.061066896
0.021933787 0.120095916 0.10589877 0.096649654 0.09894795 0.07496032 0.09836415 0.08481391
0.01955544 0.11316511 0.035095684 0.08798695 0.0668459 0.15589812 0.13232322 0.04062301
0.09242378 0.13655068 0.07126217 0.06095335 0.04100815 0.070076555 0.08322863 0.03822101
0.12822023 0.013979817 0.038282692 0.035783086 0.053524386 0.04739944 0.10100853 0.11416888
0.15939996 0.1279046 0.010837326 0.08209972 0.007943517 0.07008371 0.09447063 0.09349972
0.09614357 0.14392626 0.09149802 0.09204623 0.13579635 0.034060795 0.047256876 0.06617455
0.13380285 0.060326032 0.04698773 0.1490831 0.07482467 0.181514 0.063613184 0.08135438
0.07143148 0.04523224 0.15943941 0.055590447 0.038590886 0.082713075 0.07734939 0.13403001
0.1274553 0.054679025 0.064268254 0.09136741 0.110607415 0.07316222 0.051934887 0.094323605

net.0.bias f4 [128]
00000000: 89c9 033e 85a4 1d3e c205 1f3e f9b1 fe3d
00000010: 2433 ae3d 99ff 3b3e 532d e23d 7b46 8cbc
00000020: 05a9 143e d4a8 153e a350 27bd a90a 47bc
00000030: 77b2 0d3d 9933 b93d 8aa6 5cbc ce09 173e
00000040: f065 de3d 6f45 1c3e a092 023d 63f7 073d
00000050: 69d0 58bd 4532 1a3b 6bae 263e b1a5 223e
00000060: 2cdd 4b3a a629 ed3d 34f1 053e da52 2e3e
00000070: f6da cd3c 63f1 c73d 4443 87bc 86f0 a53d
00000080: 36af 133e 9f7e 66bc 3079 263e e184 803c
00000090: a8b0 0f3e 9a31 0f3e 753f ac3d ede8 cabc
000000a0: 754b f03d a530 383e ddcb 8abd b44e 58bc
000000b0: 8a65 033e 0393 f33c 584a 8ebc ab34 bbba
000000c0: 7474 2f3e e859 a13d 64ff 1d3e eb74 95bc
000000d0: 87d8 533c efb0 1d3e b76b 95bd ea2a a53c
000000e0: 8b5d a73d caf2 98bc 0820 9f3d 43f0 293e
000000f0: f75b bfbb e7a3 193e c0a8 54bd d34d bbbc
00000100: 195a 123e 30f4 203e 0c00 de3d 6ea1 083e
00000110: 247e db3d 4087 fb3d 28c0 1e3e 384c 1abd
00000120: 2ed1 33bd 0d8b d9bb 59fb c43d f686 1b3e
00000130: cb4d 51bc 796b f23c 511d d83d 5165 c53d
00000140: 267e 073e ddf6 e33d af17 90bd 8d66 1c3e
00000150: 592a 053e 9f26 f33b d5d2 1b3e 6419 b23d
00000160: fe36 da3d 25a3 063e ddbe 913c f28f 303e
00000170: e4e6 ce3c 40ca 083e eb1f e13d 653f 4dbd
00000180: 6100 bc3d 6758 183e a0ca 173e f7be 053e
00000190: dd62 123e 05a8 c83d 7a76 443e 3bbe 093e
000001a0: e2cf 8bbc 208b 2c3e 15ae 05ba f518 fe3d
000001b0: 5a05 19bc 9ca7 063e c1c3 cd3d 7809 9bbd
000001c0: cbde 433e 4b1d 28bc e1bc f53d 20cd 5fbc
000001d0: ba4d b73b c81b e13d b40e ef3d 37d2 25bc
000001e0: d319 b93d bc08 8fbd 5ac9 2c3e 4346 f03d
000001f0: b422 293e 0210 1f3e 2394 a73d f40b 0a3e
0.12869848 0.1539479 0.1552954 0.12436289 0.08505848 0.18359222 0.11043801 -0.017123451
0.14517601 0.14615184 -0.040848386 -0.012148538 0.034594025 0.090430446 -0.01346744 0.14749834
0.10859287 0.15260862 0.031878114 0.03319491 -0.05293313 0.0023528498 0.16277473 0.15883519
0.00077767926 0.115802094 0.13080293 0.17023793 0.025128823 0.09762838 -0.016511567 0.08102517
0.14422306 -0.014068275 0.16257167 0.015688362 0.14032233 0.13983765 0.08410541 -0.02476927
0.11733142 0.17987306 -0.06777165 -0.013202358 0.12831703 0.029733187 -0.017369434 -0.0014282664
0.17134267 0.078784764 0.15429455 -0.018244227 0.012930042 0.15399526 -0.072959356 0.020162065
0.08172139 -0.018670458 0.07769781 0.16595559 -0.0058398205 0.1500393 -0.051918745 -0.022864258
0.14292182 0.1571815 0.10839853 0.1334283 0.10717419 0.12281656 0.1550299 -0.037670344
-0.04390066 -0.0066388906 0.09618253 0.15188202 -0.012774895 0.029592263 0.10552467 0.09638465
0.13231716 0.1113107 -0.07035767 0.15273495 0.13004436 0.0074203755 0.15217145 0.08696249
0.1065502 0.13148172 0.017791206 0.17242411 0.025256582 0.13358402 0.10992416 -0.050109286
0.0917976 0.14877473 0.14823389 0.13061129 0.14295526 0.09797672 0.1918582 0.13451473
-0.0170669 0.16849947 -0.00050994876 0.12407104 -0.009339655 0.13149875 0.10047103 -0.075701654
0.19127958 -0.01026089 0.119989164 -0.013659745 0.0055939825 0.10991627 0.11672726 -0.01012092
0.09038129 -0.06984088 0.16873685 0.11732151 0.16517144 0.1553345 0.08182552 0.13481122

net.3.weight f4 [1, 128]
00000000: 4caa 4ebe 57ed 3dbe 18d3 3cbe 740d 8abe
00000010: 96ba 84be 3e5d 36be a258 39be a667 483e
00000020: 61b9 60be c8e7 47be d966 1ebb d7dc 553e
00000030: af52 bd3e 9edc 8abd e800 313d ec82 63be
00000040: 6e5b 6cbe 4515 afbe 5027 843d 831c 813c
00000050: 0316 d03c d462 063e fadd 37be cbb7 3dbe
00000060: ef68 b13e f51c 5ebe 1ffb 2abe e3ad 1ebe
00000070: 7c2d e43d ac63 8bbe dbc2 883e 18fa 88be
00000080: cb78 34be fbe2 903e fcf8 32be 93e8 3e3e
00000090: 72f0 4bbe adf2 36be 5d2e 58be c28f ba3c
000000a0: c3b8 48be 8b48 15be 348f 9ebb 79c6 833e
000000b0: 971f 4cbe 2aab b13d 2f01 5b3e 0686 033e
000000c0: ec98 1cbe 8200 67be cb81 56be 0500 cf3d
000000d0: 6a33 d23d 0e84 2dbe faa9 673e ef7c 253e
000000e0: f8cf 70be a7d9 323e efc0 7fbe 3d5f 45be
000000f0: 2bcf 223e 8868 4bbe 256c 833b 64ed bc3e
00000100: 6711 1fbe 7ecb 59be 7ff0 7ebe f952 53be
00000110: 7186 74be a4e3 02be 2377 61be 793b b83e
00000120: 5b41 2a3e fc60 763d 51f3 69be 8e24 32be
00000130: af8e 943e 678c b43d e83e 67be 7d56 63be
00000140: 227a 3ebe fb3a 6bbe 30a3 4b3d e0ba 25be
00000150: acef 5fbe ef53 663d 538f 15be bc3f 65be
00000160: bae1 67be ab4b 55be 68ea e63d 43a3 32be
00000170: 70fa 9e3d cf11 2bbe d700 54be 3e02 3f3d
00000180: 094a 45be 4bd0 28be ca13 abbe ba80 64be
00000190: fa23 3bbe ed07 82be 8abf 58be 79b4 59be
000001a0: c01a e73d 294a c5be b339 be3d a64c 34be
000001b0: 34ff 983e 8052 36be 68aa 5ebe 1f71 623d
000001c0: 9505 6fbe 72c6 e43d b6f5 47be 5b31 5a3d
000001d0: 6d1c 563d ce59 68be 6fad 54be 61b6 003d
000001e0: d835 63be 210b 8a3d 8ab7 2bbe d1d7 74be
000001f0: 8223 33be 16bf 37be 56ae 77be d2bc 49be
-0.2018215 -0.18547569 -0.18439901 -0.2696339 -0.25923604 -0.17809007 -0.18100217 0.19570789
-0.21945716 -0.19522011 -0.0024170189 0.20885025 0.36977145 -0.06780361 0.043213755 -0.22217911
-0.23081753 -0.34195915 0.06452811 0.015760666 0.025401121 0.13123637 -0.17955771 -0.18527143
0.3465037 -0.21690734 -0.16697358 -0.1549602 0.11141488 -0.2722448 0.26711163 -0.26753306
-0.17624204 0.28298172 -0.17477793 0.18643408 -0.19915941 -0.17866011 -0.21111436 0.022773627
-0.19601731 -0.14578454 -0.0048388485 0.2573736 -0.19933926 0.08675225 0.2138717 0.12844095
-0.1529271 -0.22558787 -0.2094795 0.101074256 0.10263713 -0.16944906 0.22623435 0.1616094
-0.23516834 0.1746584 -0.24975942 -0.19274612 0.15899341 -0.19864094 0.0040106946 0.36899865
-0.15533982 -0.21269032 -0.2489643 -0.2063712 -0.2387941 -0.1278215 -0.22018103 0.35982874
0.16626494 0.060151085 -0.22846724 -0.17396757 0.2901511 0.08815842 -0.2258259 -0.22200961
-0.18601277 -0.22971718 0.049716175 -0.16184568 -0.21868771 0.05623239 -0.14605455 -0.22387594
-0.22644702 -0.20829646 0.11275178 -0.17445092 0.07762611 -0.16706012 -0.20703445 0.046632998
-0.19266523 -0.16485707 -0.33413535 -0.2231473 -0.18275443 -0.25396672 -0.21166816 -0.21260251
0.11284399 -0.38533142 0.09288349 -0.17607364 0.29882205 -0.17804909 -0.21744692 0.055283662
-0.23341973 0.11170663 -0.19527325 0.053269725 0.052273203 -0.22690508 -0.20769285 0.03142393
-0.22188509 0.06740404 -0.16769233 -0.23910452 -0.17494014 -0.17943987 -0.24187598 -0.19700935
