app/models/ml/model3.pt (torch, 135955 bytes, 3 tensors)

net.0.weight f4 [128, 259]
00000000: 083b 11be ed12 17be 1155 28bd 9fe0 0cbd
00000010: 4a0a 52bd 7676 f3bd 4da1 38be 175f 1fbe
00000020: 0fcc 11be 421c 13be cc70 d4be cbc8 8bbe
00000030: 50dc 02bc 87b0 afbe 5130 72bd 1d03 62be
00000040: d19a 71be 1ea3 eebd 23a7 60be 206c 82bd
00000050: 3839 4dbe a4b5 34be ed75 1bbc c3f0 02bd
00000060: 51d9 6a3c 764c c13b 4d90 15bd 309f 0d3a
00000070: eaee 3abe 0ec7 bdbc 9e8d 94bd 7fd8 a6be
00000080: 9267 333d 1550 1fbe 265f 04bd c8d7 dbbe
00000090: 2a0a 05be 2361 1fbe e8db 60be 5f46 23be
000000a0: dbd8 73be d50e 26be e3e4 54be 9ddb 06bd
000000b0: 4b4c ff3b 58a6 eabe 6561 aebe a762 94be
000000c0: 6e72 dcbe 6c14 25be 7f7b 4ebe 6963 88be
000000d0: 523d 5fbe def2 dabd 813c adbd 0ea9 d6bd
000000e0: 3bae 4abe daec 45bb 3bb1 ffbd 75cf c4bd
000000f0: edef ecbd e587 67be 8325 c43b 4872 1ebe
00000100: b7e4 593d b918 e4bd a196 54bd 4e13 29be
00000110: 9997 fabc d608 99bc b526 52bd e980 c2be
00000120: 4871 3bbb dd63 2cbe 8cb1 29bd fdcf d4bd
00000130: be04 37bd 0515 dfbd 762c bbbd fde5 03bd
00000140: 936a 14be 38df a0bd 4c76 90bd 86ce 45be
00000150: 98bd 35be 400b 43be c4ef 41be b888 67bd
00000160: d33a 233b e928 07be 1207 b3bd 6fb4 25be
00000170: b86d 7abe e8c4 e5bd 61cd 29be bade 77bd
00000180: 9142 6ebd 831f 0a3d c1b6 0c3d bbcd 9cba
00000190: 9f7c e1bd 998e 063d c1dc 1dbe 57f1 0bbe
000001a0: c740 f0bd 92dc 1fbd 928d d4be 9140 043d
000001b0: 433d 153d c952 9a3c 1545 0ebe 9a51 21be
000001c0: 2403 13be 5e9b 28be 4e65 78bc c43f 19be
000001d0: ed27 85bc f7bc febd 4084 1f3d a6e1 6fbe
000001e0: 3a63 17be 5a91 5ebe c629 34be c895 48bd
000001f0: b7df f13c 17a2 0cbe d855 d4bd 7539 25be
00000200: 9ae3 103d b9d6 2fbd ffab c83c 6be4 74bd
00000210: dc3b 073e 9a6e 1f3e f790 f43d 082f 52bc
00000220: a0d9 cf3d e2b2 ccbd 9609 a63d a45b a53d
00000230: 103b 973c aff5 8c3d a303 c73d b6b3 4b3d
00000240: 64a4 fb3d e5af 11bd 93ec c13d a642 423d
00000250: ae3b 0b3d 41ff a3ba 0590 bf3c 1f6e c53d
00000260: fd68 273e 1951 953d 754c 1d3e 5554 053e
00000270: ad45 d13d f937 0e3e 5886 2f3d 12eb fb3d
00000280: db5a 19bb 1dc1 133d 3ffc d23d 80b9 77bd
00000290: d9d6 fe3d 4272 993d ae15 8a3c 9574 833c
000002a0: 504c 77bc 84fd ba3d 658e c0bc 2d95 963c
000002b0: c0d5 523d 52f4 24bd 7403 e33d 5ffa 4b3d
000002c0: 9db0 3ebc 944a b6bc 450d b73d cc11 ad3d
000002d0: ae1b 2ebd 5b9f af3c 1b25 ef3d 804d 903c
000002e0: 41d8 a63c 0a33 213d 8095 873d 6233 4c3d
000002f0: d617 423d a5b1 ba3d fc3f b03c b35f 9d3d
00000300: 8df4 ae3d 59c6 a43c b466 093e 80e8 773d
00000310: cd72 573d b7e8 cabb daba d83d acbd 9e3d
00000320: 5caa 063e 316e e23d 1ffb b53d 4c39 98bc
00000330: 8182 513d 41eb c1bd 6daf c13d 7170 80bc
00000340: b989 b13c 42c7 0b3d 26bc 723d 95d3 a73c
00000350: 37e3 38bd f654 843d e38c b23d d9fe 973c
00000360: 55b4 ba3c b886 b73d 24f3 b93d e634 ebbc
00000370: 9344 7c3d b985 a53c 26a7 b93c 25a1 513d
00000380: 8fa7 33ba f3fb d8bc b667 093e aba2 c93d
00000390: 44c4 c83d df7e 0a3e 0281 e33c d43e 2c3e
000003a0: 4808 0cbd c779 3b3b 88fd 27bd 4285 f33d
000003b0: 97ac 9f3d 46a3 0d3e 7c43 123e 1b6e db3d
000003c0: 0371 1a3d 32cd 903d 05a4 4abc 36b9 1d3c
000003d0: 3ec3 ef3d 99d8 8dbd a1f8 0a3e e309 e9bc
000003e0: 7886 b63d 660f 743d 0088 933d d2d9 5b3c
000003f0: 1d33 123d fd04 873d 0c88 3d3d f1be 6c3d
-0.14182675 -0.14753313 -0.04109675 -0.034393903 -0.051279344 -0.11887829 -0.18030281 -0.15563618
-0.14237998 -0.14366248 -0.41492307 -0.2730163 -0.007987097 -0.34314367 -0.05912811 -0.220715
-0.23594214 -0.11652206 -0.21938758 -0.063682795 -0.20041358 -0.17647415 -0.009488565 -0.03196789
0.014334039 0.0058990074 -0.03651457 0.0005402444 -0.18255201 -0.023166206 -0.07253574 -0.32587048
0.043799944 -0.15557893 -0.032317303 -0.42938066 -0.12992159 -0.15564398 -0.21958888 -0.15944813
-0.23813193 -0.16216595 -0.20790438 -0.032924283 0.0077910773 -0.45830035 -0.3405868 -0.28981516
-0.43056053 -0.16121072 -0.20164298 -0.26638344 -0.21800736 -0.106908545 -0.08458806 -0.104814634
-0.19793026 -0.003020099 -0.12484976 -0.09609882 -0.115692 -0.22610433 0.005985917 -0.15473282
0.053196635 -0.11137528 -0.051901463 -0.1651127 -0.030589866 -0.018680971 -0.051306445 -0.37988976
-0.0028601456 -0.1683497 -0.041429088 -0.10391233 -0.044682257 -0.10892681 -0.091393396 -0.032201756
-0.1449378 -0.078550756 -0.07053813 -0.19317064 -0.17748106 -0.1904726 -0.1893912 -0.05652687
0.0024906888 -0.131992 -0.08741583 -0.16182111 -0.24455917 -0.112191975 -0.16582252 -0.060515143
-0.05816895 0.03372146 0.034353975 -0.0011963168 -0.11010098 0.032850835 -0.15416242 -0.13666283
-0.11731105 -0.03902871 -0.4151426 0.032288138 0.036435377 0.018838303 -0.1389354 -0.15753785
-0.14356667 -0.16465518 -0.015160872 -0.14965731 -0.01625439 -0.12438386 0.038944483 -0.23425922
-0.14783946 -0.21735135 -0.1759406 -0.048970968 0.02952562 -0.13733707 -0.10367936 -0.161352
0.035373308 -0.042929385 0.024496077 -0.05978815 0.13206428 0.15569535 0.11941712 -0.012828596
0.101489305 -0.09995057 0.08107297 0.0807412 0.01846078 0.06882798 0.097174905 0.049731933
0.122872144 -0.035568137 0.09468951 0.047426842 0.03399246 -0.0012511985 0.023384104 0.096401446
0.16348644 0.07290859 0.15361197 0.13020451 0.10218368 0.1388854 0.04285273 0.123006955
-0.0023400101 0.03607284 0.103020184 -0.06047964 0.12443323 0.07492496 0.01685604 0.016046802
-0.015093878 0.091303855 -0.023505399 0.01838168 0.05147338 -0.040272065 0.11084643 0.04979932
-0.011638788 -0.022252358 0.08938078 0.0845066 -0.042506866 0.021438291 0.11676999 0.01761508
0.02036679 0.039355315 0.06620312 0.04985369 0.047386013 0.09115914 0.021514885 0.07684269
0.08542738 0.02011411 0.13418084 0.060524464 0.052599717 -0.0061922926 0.10582514 0.07751021
0.13150924 0.110561736 0.08885788 -0.018582009 0.05114985 -0.09468699 0.09457288 -0.015678616
0.021672117 0.034125574 0.059261464 0.020486632 -0.045138564 0.064615175 0.08718278 0.018554138
0.022791067 0.089612424 0.090795785 -0.028711747 0.061588835 0.020205365 0.02266271 0.05117907
-0.0006853276 -0.026487326 0.13418469 0.098454796 0.0980306 0.1352496 0.027771477 0.16820842
-0.034187585 0.002860652 -0.04101327 0.11890651 0.07796591 0.13831815 0.14283556 0.1071436
0.037705433 0.07070388 -0.012368207 0.009626677 0.11707161 -0.06926078 0.13571407 -0.028447097
0.08912367 0.059584998 0.07203674 0.013418632 0.035693277 0.06592748 0.046272323 0.057799283

net.0.bias f4 [128]
00000000: 79b6 87bb 3307 0fbd 2949 7abc 2f3e aa3c
00000010: 7f5c 2fbd d0fe 03bb 7afa ea3c 55c6 a93d
00000020: e83d 873d 93df a43d e8d0 45bd f122 c73c
00000030: 400a 753d fa02 de3d e609 87bc 00d4 9dbb
00000040: bef0 de3c 79ab 04bd b98f 9f3c 7b21 0ebd
00000050: 23d5 47bd e8f0 4cbd 52eb 45bd 90ed 393d
00000060: 0020 653c c38d 81bc be29 e13c d437 193c
00000070: d8ec e73d 37cc 7fbd 114e 9abd 2075 453d
00000080: 41fd ac3c 22de cdbb c14f 4f3d a7ac a8bd
00000090: 18ab 553b 6343 71bd 9de4 613c cae1 ad3d
000000a0: cb42 013d b1c8 5abd 57f4 31bd 68aa c83d
000000b0: 2ce6 773d 92b1 703c 40f4 ebbc 99f7 1f3d
000000c0: 30f4 c03c 596b 103d a76a e03c e16c 9ebd
000000d0: 469a ab3d 2c78 ae3b 1a10 9cbd f861 673c
000000e0: df15 07bc c726 b53d f398 0bbd 5203 573d
000000f0: 4cee 303d a3a6 b63d e0d0 0d3c 4e79 20bb
00000100: 9003 80bd 3788 a2bc 082f e03c 9332 f2bc
00000110: 39d0 7cbd a401 023d 2b21 193d c613 e8bc
00000120: 4ca9 ce3d baef bc3d 6fd5 2d3d 6b75 05bd
00000130: f59d e6bc eb3b 2c3b 2dfb 54bc 8ba4 4d3c
00000140: 5f5e 3dbc d52e 933b 2397 443c ddc4 9ebd
00000150: 22d6 663c 6b14 e83d 5cdf bfbc 44d8 583d
00000160: 4e74 3dbd 57df aa3b 3740 e2bc b8c7 ff3c
00000170: 6a7d 0c3d ae08 ae3c bd06 073d 4d7b f5bc
00000180: 8c24 163d 4e80 293d 3b48 4dbd 6adc 47bd
00000190: 4401 1fbd 99dd 78bc 8cf2 c2bc 6f21 af3d
000001a0: 9887 c73d 3c76 8bbc dbbf 363d c80c 9f3d
000001b0: 3d2e 6d3c d586 3c3d b5af f43c f854 333d
000001c0: e8b9 e5bc c8aa 33b8 066f a4bc cde3 09bd
000001d0: 505d a03c 6cd5 b13b e95b 6dbd c7be 203e
000001e0: 9d45 853c b14e 503d 48f0 ad3b a335 8d3d
000001f0: 3aed d53d 986b db3d 45db 473d 14d6 31bd
-0.0041416255 -0.034918975 -0.015276232 0.020781605 -0.04281282 -0.0020140894 0.02868389 0.08289782
0.066036046 0.08050456 -0.04829493 0.024308654 0.05982423 0.108404115 -0.016484212 -0.004816532
0.027214404 -0.03239009 0.019477712 -0.0346999 -0.048787247 -0.050034434 -0.048320122 0.045392573
0.01398468 -0.015814668 0.027485725 0.009351689 0.11324471 -0.062450614 -0.07534421 0.048207402
0.021116855 -0.006282584 0.05061317 -0.08236056 0.00326032 -0.058902156 0.013787416 0.084903315
0.03155784 -0.05341405 -0.04344591 0.097981274 0.060522243 0.014690774 -0.02880299 0.039054487
0.023553938 0.035258625 0.027394606 -0.07735611 0.08379035 0.005324384 -0.07620259 0.014122479
-0.008244961 0.08845287 -0.03408141 0.0524934 0.043196008 0.08918502 0.008655757 -0.0024486366
-0.062506795 -0.019840343 0.027366176 -0.029565131 -0.061722014 0.031739846 0.037385147 -0.028329741
0.100908846 0.09225412 0.042439874 -0.03258268 -0.028151492 0.002628083 -0.012999338 0.012551437
-0.011558144 0.004491667 0.011998924 -0.077523924 0.014089139 0.113320194 -0.023421936 0.052940622
-0.046253495 0.0052146125 -0.02761851 0.031223163 0.03429929 0.021244373 0.03296541 -0.029966021
0.036655948 0.041382127 -0.050117712 -0.048794188 -0.038819566 -0.015189552 -0.023797296 0.08551299
0.09742659 -0.017024152 0.04461656 0.0776611 0.014476356 0.046027023 0.02986894 0.043782204
-0.028042749 -4.2835978e-05 -0.020072471 -0.033664513 0.019575745 0.005427053 -0.05794898 0.15697776
0.016268546 0.050856296 0.005308185 0.06894996 0.10445638 0.10713881 0.048793096 -0.04341705

net.3.weight f4 [1, 128]
00000000: dd06 9bbe cb0c c53d fc41 fd3c c01f 13bf
00000010: 8619 923d e339 31be 1b60 fabe 91a9 efbd
00000020: f33a c4bd 0bc3 67be cb87 8d3d 0d65 ab3d
00000030: a0e3 82be 4267 7cbe 059d 8abb 9e9f 3dbd
00000040: 05b4 c4bb 9b05 013e 2311 a83e c09f 8cbd
00000050: 8553 b73d 0054 933d e17a aa3d 0ab7 99be
00000060: bc06 f4bd 4b9e 9f3e ed68 40bd b3ba 90be
00000070: b143 023f c9b0 ac3c 0482 5f3d d2a6 0b3f
00000080: c6d5 74be 1470 f53c bfbc 563d 7eaf 0c3e
00000090: b93d 63be 5294 953d 57e1 44bc a95f 26be
000000a0: 3095 fcbe 65f0 643d 377a da3c 17bd 19be
000000b0: 677a e23c aed4 41bd c864 953d 8ccb abbd
000000c0: 9614 85be fe0a 03bb 1758 9e3d efe7 c83d
000000d0: 8232 bbbd e733 a9be ceba 1b3d b22b b3bc
000000e0: ebb7 21be ca93 fb3e 97b8 4cbc 785a 6fbe
000000f0: 408a cabc 436a 25be fe1f 8b3d 5a3d 823d
00000100: e21a 583d e801 243d e758 3fbe 83fc 373d
00000110: cc1a b63c 10b8 88bd c5c8 2fbe a8f9 7a3e
00000120: cd85 28be bac6 47be 05f5 5ebd 6189 40bd
00000130: 30bf 8d3d 419c 8abe 7076 fb3c ab8f 933d
00000140: e59d 91bc c54b 3a3d b47d 09ba 2b30 553d
00000150: b253 56bd 0f28 8dbe 003b 2cbd 94d5 30be
00000160: 78e2 75bb a531 1f3d bfcd a9bd 040d 843d
00000170: 9820 6ebe 16c5 bdbc 3e7a f13e 0295 933d
00000180: 1fe5 43be 35e4 a3bd b64c 933d d34c 1c3d
00000190: 65aa 9e3d 898f c03d 532a 883c cddc 83be
000001a0: 3067 3cbe b4ea 6e3d 1180 bfba 0769 40be
000001b0: 53dc dc3c bb21 59be caf7 1fbe 97f0 d9bd
000001c0: 6d34 313d 166f 73be a311 89bd e384 ac3c
000001d0: abf8 5fbd d69b c0bd 4cb0 163d 7cd2 083f
000001e0: 62e1 8fbe 3765 31bd 50f5 123e 2960 45be
000001f0: 3c04 cebd 2cdc b3bd 1025 4ebe c771 d6bb
-0.30278674 0.09621581 0.030915253 -0.5747032 0.071337745 -0.17307238 -0.48901448 -0.11702264
-0.09581556 -0.22632997 0.06910666 0.08368883 -0.2556429 -0.24648765 -0.004230144 -0.0462948
-0.0060029053 0.12599795 0.32825574 -0.068664074 0.08951477 0.07193756 0.083242185 -0.3002246
-0.11915347 0.31175455 -0.046975065 -0.2826744 0.5088454 0.021080391 0.054567352 0.5455142
-0.23909673 0.02996067 0.052426096 0.1373882 -0.22191514 0.073036805 -0.012016616 -0.16247429
-0.4933257 0.05589332 0.026669605 -0.15013538 0.027646257 -0.047321968 0.07294613 -0.08388433
-0.25992268 -0.0019995566 0.077316456 0.09809863 -0.09140493 -0.3304741 0.038019948 -0.021871421
-0.15792815 0.49136192 -0.0124951815 -0.23374355 -0.024724126 -0.16153817 0.067932114 0.06359358
0.052760012 0.04004088 -0.18686257 0.04491855 0.022229575 -0.06675732 -0.17166431 0.24509299
-0.16457291 -0.19509402 -0.054432888 -0.047006015 0.06921232 -0.27072337 0.030696124 0.07205137
-0.017775485 0.045482416 -0.00052448665 0.05204789 -0.05232591 -0.27569625 -0.042048454 -0.17268974
-0.003751902 0.038865704 -0.08291196 0.06447795 -0.23254621 -0.023165267 0.47163576 0.07206155
-0.19130372 -0.080025114 0.07192366 0.038159203 0.07747344 0.09402377 0.016621744 -0.25754395
-0.18398738 0.0583293 -0.001461031 -0.18790065 0.026960528 -0.21204273 -0.15621868 -0.10641592
0.043262888 -0.23772845 -0.06692817 0.02105946 -0.054680508 -0.09404723 0.036789224 0.53446174
-0.2810164 -0.043309417 0.14351392 -0.19274963 -0.100594014 -0.08782229 -0.20131326 -0.006544325
