app/models/ml/model2.pt (torch, 135945 bytes, 3 tensors)

net.0.weight f4 [128, 259]
0.12913333 0.044745304 -0.03420598 -0.012215905 0.0014677575 0.11147915 0.14751141 0.07577732
0.12934774 0.07415108 0.27369863 0.22499065 0.057537917 0.27937603 0.04925134 0.117407165
0.19154899 0.03567579 0.27287436 0.06985906 0.118982345 0.08784032 -0.053929705 0.05500038
-0.03723013 -0.03374244 -0.02428445 0.033748608 0.061426654 0.05240404 0.07049158 0.19244373
0.0022740427 0.13447675 0.0072288187 0.34687907 0.090521924 0.12313876 0.22977279 0.12591706
0.18878084 0.15370952 0.12173689 0.09070664 -0.018381286 0.40439838 0.25901145 0.16859412
0.3510294 0.03217016 0.08046259 0.24834977 0.2289397 0.08060832 0.14435962 0.064849034
0.045392398 -0.044807218 0.09521339 0.06151325 -0.001618223 0.2682267 0.016905766 0.08816841
0.0440228 0.12194192 0.006876218 -0.03797215 -0.061877996 0.01638907 0.058518827 0.20661382
0.013296335 0.116127394 -0.0047257496 0.0407907 -0.014977741 0.10555886 0.008496038 0.10853593
0.056420285 0.09413943 0.093860336 0.120202884 0.08167848 0.05978839 0.04311449 0.0011527322
0.12213029 0.09663004 0.10864627 0.061586663 0.16387643 0.0725079 0.18581122 0.08543476
0.008067363 -0.05885537 0.012916977 0.039075017 0.104814135 -0.010179386 0.13738407 0.14106847
0.08635306 -0.0008522845 0.42623696 0.03158606 -0.0027250363 0.03452118 0.12369375 0.105411805
0.06250089 0.07455229 -0.014931156 0.030896837 -0.0044045243 0.041489847 0.03437639 0.23499767
0.16404752 0.25385347 0.24545105 -0.029492889 -0.019176727 0.16713916 0.03883947 0.11396837
0.013602415 0.036514882 -0.045628216 -0.028616266 -0.23584439 -0.25299737 -0.25954846 -0.034649383
-0.02178835 -0.016002888 -0.20975502 -0.13272023 0.004523619 -0.020261759 -0.25373775 -0.096420266
-0.28683066 0.04001018 -0.023634968 -0.06690037 0.09911953 -0.07084244 -0.11497759 -0.08709351
-0.30156153 -0.12583064 -0.20744316 -0.1858481 -0.1727343 -0.23661825 -0.11624454 -0.19196734
-0.037389316 -0.099118516 -0.18776076 0.06698304 -0.2748485 0.0014778156 0.07865109 -0.02428517
0.016277498 0.10648558 0.051256265 -0.056730874 0.07083842 0.018886073 -0.32617003 0.084103614
0.08246155 -0.0952417 -0.015184135 -0.06767618 -0.012823295 0.075077996 0.058505803 0.012842996
-0.017900992 -0.021096753 -0.20129368 -0.14296491 -0.059911627 -0.10127414 -0.05638481 0.026269361
-0.22273849 0.036679335 -0.25817713 -0.0022419647 -0.045163203 -0.35766223 -0.12102097 -0.12337189
-0.22309156 -0.06384223 -0.27119285 -0.0008324338 -0.25479496 -0.018348886 -0.20647022 -0.0024736873
-0.03911058 0.046297494 0.011670621 0.06934718 -0.043194167 -0.10407455 -0.060627736 -0.1245679
-0.115974784 -0.11383511 -0.0037026661 -0.023789255 0.04078279 -0.013531309 -0.010058971 -0.0780813
0.07259426 -0.049563847 -0.2908034 -0.24113001 -0.2439234 -0.4101936 -0.17951079 -0.27857703
0.008495214 -0.15120943 -0.041317552 -0.17944829 -0.0151606435 -0.21058941 -0.22247411 -0.16319919
-0.062467266 -0.15961325 -0.033193838 -0.09013292 -0.27171788 -0.057942636 -0.26823807 0.07799776
-0.14273396 -0.011974242 -0.026470283 0.06828956 0.019426415 -0.26376048 -0.19929646 -0.102480784
00000000: 873b 043e da46 373d 921b 0cbd 3825 48bc
00000010: c561 c03a 2e4f e43d 3b0d 173e 2431 9b3d
00000020: bc73 043e 85dc 973d 3a22 8c3e f363 663e
00000030: e1ac 6b3d 600a 8f3e c6bb 493d 2b73 f03d
00000040: 6b25 443e c720 123d 30b6 8b3e 4412 8f3d
00000050: 04ad f33d a0e5 b33d 65e5 5cbd 1448 613d
00000060: 9f7e 18bd 8335 0abd 2ff0 c6bc fb3b 0a3d
00000070: 849a 7b3d 9ea5 563d e45d 903d f80f 453e
00000080: 1b08 153b 46b4 093e badf ec3b 229a b13e
00000090: 8f63 b93d 2d30 fc3d 8f49 6b3e 67f0 003e
000000a0: c44f 413e 0766 1d3e 3151 f93d 67c4 b93d
000000b0: 5a94 96bc 4e0d cf3e 269d 843e f0a3 2c3e
000000c0: 20ba b33e dcc4 033d 92c9 a43d 674f 7e3e
000000d0: 2b6f 6a3e fa15 a53d 02d3 133e 92cf 843d
000000e0: 61ed 393d c687 37bd 3dff c23d 51f5 7b3d
000000f0: 8e1a d4ba 0355 893e f67d 8a3c a491 b43d
00000100: 4051 343d afbc f93d e651 e13b af88 1bbd
00000110: c873 7dbd 5f42 863c 70b1 6f3d 9392 533e
00000120: dfd8 593c 33d4 ed3d 76da 9abb 2614 273d
00000130: 3365 75bc 3e2f d83d f732 0b3c 1648 de3d
00000140: f518 673d 2ccc c03d d939 c03d ee2c f63d
00000150: 0c47 a73d ace4 743d d298 303d 4617 973a
00000160: 721f fa3d f8e5 c53d f081 de3d 4c42 7c3d
00000170: 39cf 273e 067f 943d 4c45 3e3e 6bf8 ae3d
00000180: f92c 043c 5412 71bd baa1 533c 200d 203d
00000190: cba8 d63d 70c7 26bc 69ae 0c3e 4174 103e
000001a0: e0d9 b03d d86b 5fba bb3b da3e 6260 013d
000001b0: 8696 32bb 1566 0d3d 2653 fd3d 25e2 d73d
000001c0: 7700 803d dfae 983d cfa1 74bc 5d1b fd3c
000001d0: d453 90bb 42f1 293d 42ce 0c3d 3ba3 703e
000001e0: 13fc 273e 15f9 813e 8557 7b3e 129b f1bc
000001f0: 8318 9dbc 8726 2b3e 2316 1f3d 4068 e93d
00000200: aadc 5e3c a190 153d a7e4 3abd a96c eabc
00000210: 3181 71be df88 81be 89e3 84be 83ec 0dbd
00000220: 7b7d b2bc 7d18 83bc 05ca 56be d0e7 07be
00000230: de3a 943b fdfb a5bc eae9 81be fd77 c5bd
00000240: 78db 92be b7e1 233d 1f9e c1bc 1003 89bd
00000250: 2eff ca3d d715 91bd 5f79 ebbd 155e b2bd
00000260: 4666 9abe bfd9 00be fb6b 54be f74e 3ebe
00000270: 43e1 30be 0e4c 72be 9e11 eebd 1693 44be
00000280: 8a25 19bd a6fe cabd 5b44 40be 672e 893d
00000290: f1b8 8cbe 43b3 c13a d313 a13d b1f1 c6bc
000002a0: 6358 853c 1d15 da3d 17f2 513d a25e 68bd
000002b0: bc13 913d f7b6 9a3c c2ff a6be 843e ac3d
000002c0: 9ae1 a83d 150e c3bd e1c6 78bc cf99 8abd
000002d0: cc18 52bc 7ec2 993d c8a3 6f3d 6e6b 523c
000002e0: 1aa5 92bc 19d3 acbc ee1f 4ebe 6565 12be
000002f0: e565 75bd d168 cfbd c2f3 66bd d832 d73c
00000300: 8f15 64be 123d 163d cb2f 84be eded 12bb
00000310: 0dfd 38bd 811f b7be d8d9 f7bd 67aa fcbd
00000320: 1d72 64be b7bf 82bd cad9 8abe b037 5aba
00000330: 7c74 82be 6750 96bc ee6c 53be 961d 22bb
00000340: 6a32 20bd 71a2 3d3d 2236 3f3c e505 8e3d
00000350: 5eec 30bd 0a25 d5bd ca54 78bd 751d ffbd
00000360: 3084 edbd 6222 e9bd 6ea8 72bb afe1 c2bc
00000370: db0b 273d 6cb2 5dbc 62ce 24bc 17e9 9fbd
00000380: 4dac 943d 7603 4bbd 2fe4 94be c9ea 76be
00000390: 0ec7 79be e504 d2be add1 37be a6a1 8ebe
000003a0: 832f 0b3c a5d6 1abe 983c 29bd 4bc1 37be
000003b0: 5964 78bc c0a4 57be 41d0 63be b01d 27be
000003c0: addd 7fbd a871 23be 43f6 07bd 9c97 b8bd
000003d0: 9b1e 8bbe 4255 6dbd 8056 89be 4abd 9f3d
000003e0: da28 12be 9c2f 44bc 35d8 d8bc 66db 8b3d
000003f0: 2524 9f3c 9d0b 87be 5f14 4cbe 72e1 d1bd

net.0.bias f4 [128]
0.07642218 0.03137826 0.04226878 -0.020355564 0.035155717 -0.009425413 0.08016321 -0.01303116
-0.036382478 -0.07558645 0.039873768 0.11027828 0.014660699 0.014497776 0.024889292 0.09078714
-0.03019259 -0.0389992 -0.0016933031 0.019243281 -0.021917155 -0.03634401 0.035280168 -0.072057016
0.06212276 0.07037429 0.040891472 -0.045250136 0.041196678 -0.009653706 -0.033408493 0.01738427
-0.0010902146 0.035367984 0.029986164 0.0005338222 0.034945022 -0.071004145 -0.010283509 0.0075742514
0.01860058 0.045632526 0.115670405 -0.032582033 0.03880703 -0.0030362913 -0.0045100832 0.01940998
0.063378885 0.054937486 -0.055579215 0.006038214 0.026434269 0.036054995 0.013296379 0.057423443
-0.0012858872 0.019717038 -0.010698952 0.06879346 0.10670872 -0.04824788 -0.060892545 0.10752076
0.01861859 0.064550795 0.065623656 0.043337595 -0.046121106 0.09914231 0.04260657 0.027405428
-0.011506093 0.030393919 -0.037910305 -0.0018293872 -0.05774015 0.057634935 0.061807644 -0.034142595
-0.036802094 -0.061249517 0.03083833 0.07970072 0.06101097 0.040277693 -0.0682434 0.04149707
0.041079137 0.051400468 0.07281557 0.027110238 -0.05952932 0.010520254 0.05407954 -0.019963473
0.12188021 -0.0750915 0.017048119 0.0006961174 0.0061047897 -0.015964985 0.018782804 -0.053796474
0.10573236 -0.02007735 0.0072025154 0.022082109 -0.0023003938 -0.0032476329 -0.049708985 -0.04551889
-0.015147693 0.020160249 0.039979644 0.10035224 0.007494983 -0.02205574 0.0385151 -0.0355955
0.0028645608 -0.046738103 0.09252285 -0.013594676 -0.06507807 0.01878894 0.10386294 0.0203996
00000000: 3b83 9c3d 7e86 003d 0722 2d3d b6c0 a6bc
00000010: 71ff 0f3d 0c6d 1abc 9c2c a43d a680 55bc
00000020: cb05 15bd 12cd 9abd ad52 233d 94d9 e13d
00000030: 6e33 703c 1488 6d3c a1e4 cb3c 9cee b93d
00000040: 7356 f7bc a0bd 1fbd d3f1 ddba 16a4 9d3c
00000050: 9b8b b3bc 75dd 14bd f081 103d a192 93bd
00000060: 6f74 7e3d 6520 903d d17d 273d 3558 39bd
00000070: d9bd 283d 942a 1ebc 58d7 08bd 7569 8e3c
00000080: 88e5 8eba 05de 103d 8ba5 f53c 34f0 0b3a
00000090: 8322 0f3d 9f6a 91bd 2a7c 28bc 6d31 f83b
000000a0: 3e60 983c 2ce9 3a3d 9be4 ec3d bd74 05bd
000000b0: 1ff4 1e3d 84fc 46bb 52c9 93bb ae01 9f3c
000000c0: cacc 813d 2106 613d 08a7 63bd 36dc c53b
000000d0: ae8c d83c 67ae 133d 0ed9 593c d834 6b3d
000000e0: 378b a8ba a085 a13c a84a 2fbc 96e3 8c3d
000000f0: 1a8a da3d 929f 45bd 766a 79bd d833 dc3d
00000100: 0386 983c 3533 843d b265 863d c382 313d
00000110: 7ce9 3cbd 200b cb3d 3a84 2e3d 5981 e03c
00000120: 0d84 3cbc abfc f83c d647 1bbd 0cc8 efba
00000130: ef80 6cbd 9c12 6c3d 032a 7d3d 1bd9 0bbd
00000140: cbbd 16bd c6e0 7abd aaa0 fc3c 223a a33d
00000150: a4e6 793d 39fa 243d 32c3 8bbd d5f8 293d
00000160: 9942 283d 4c89 523d 5420 953d 4a16 de3c
00000170: 04d5 73bd 255d 2c3c 8282 5d3d 708a a3bc
00000180: 559c f93d 93c9 99bd 7fa8 8b3c a67b 363a
00000190: b00a c83b 00c9 82bc 65de 993c b159 5cbd
000001a0: 358a d83d 4179 a4bc 1403 ec3b 8ae5 b43c
000001b0: 34c2 16bb 3dd6 54bb a69b 4bbd 0472 3abd
000001c0: 082e 78bc 1b27 a53c b2c1 233d 7a85 cd3d
000001d0: 7998 f53b 3dae b4bc 02c2 1d3d 96cc 11bd
000001e0: 5bbb 3b3b 7470 3fbd 9f7c bd3d 34bc 5ebc
000001f0: a747 85bd 43eb 993c 18b6 d43d 101d a73c

net.3.weight f4 [1, 128]
0.45122603 0.007728826 -0.06296757 0.04382427 -0.26004812 -0.004441591 0.40513435 0.07298581
0.01904124 0.068460226 -0.15727913 -0.15126027 -0.0057771 0.0793433 0.013179931 -0.11212891
-0.03286234 -0.027268494 -0.14615053 0.026395507 0.0810208 0.0739296 -0.1399175 0.092405595
-0.12732065 -0.12494445 -0.07900636 0.03926781 -0.12617606 -0.11505311 -0.0008571194 0.059677757
0.025361497 0.053462822 -0.07926101 -0.06312513 -0.21010241 0.07437571 -0.06319197 -0.117618084
0.040008087 -0.07971895 -0.11051299 -0.0036269464 -0.16272591 0.029141743 -0.068525925 0.10732149
-0.40977556 -0.017295668 0.033944197 0.034286827 -0.113501295 0.01680951 0.04791768 0.10295464
-0.14236262 -0.037233822 -0.12854654 -0.1709131 -0.18025291 0.048719574 -0.067910686 -0.14603978
-0.15884624 -0.108484015 -0.15855852 0.0032725763 -0.0021800227 -0.2150879 -0.0072764726 -0.029863244
0.0597432 0.40796712 -0.016948007 0.01659506 -0.046479892 -0.10247718 -0.06952599 0.020648563
0.009817274 -0.063054845 -0.16554368 -0.123740986 -0.17667039 0.0765635 0.040713158 -0.029420955
-0.07650013 -0.036941536 -0.09619624 -0.116353236 0.018297179 0.04906906 -0.18986031 0.053721625
-0.09468321 0.06175696 0.011894874 0.03265771 -0.011655195 0.027923986 0.37446448 0.04841028
-0.09007926 -0.07245738 0.06202109 0.07430299 0.009321202 0.02548213 0.07857887 0.047677595
-0.2007077 -0.123849794 0.059498955 -0.12439437 0.46222445 0.05663239 -0.08440719 -0.016035538
-0.20407872 0.06534299 -0.14784487 0.0044481237 0.07698374 -0.06988804 -0.21519953 -0.0073290733
00000000: 1907 e73e 1742 fd3b 24f5 80bd 1481 333d
00000010: 0725 85be c48a 91bb c56d cf3e 9679 953d
00000020: 60fc 9b3c e034 8c3d c80d 21be f9e3 1abe
00000030: d44d bdbb bd7e a23d a3f0 573c d8a3 e5bd
00000040: a99a 06bd 2d62 dfbc 7ca8 15be 643b d83c
00000050: 3cee a53d 6768 973d 8846 0fbe 253f bd3d
00000060: 5860 02be e0e2 ffbd 16ce a1bd 48d7 203d
00000070: 4c34 01be f7a0 ebbd 4fb0 60ba aa70 743d
00000080: eac2 cf3c d5fb 5a3d 9953 a2bd c047 81bd
00000090: 1625 57be 4b52 983d cb6a 81bd c0e1 f0bd
000000a0: 85df 233d b043 a3bd a254 e2bd 10b2 6dbb
000000b0: 9fa1 26be aaba ee3c 5257 8cbd 5fcb db3d
000000c0: 1ace d1be a5af 8dbc 1209 0b3d 5870 0c3d
000000d0: 5e73 e8bd 19b4 893c 5445 443d e2d9 d23d
000000e0: 82c7 11be 7e82 18bd b4a1 03be d803 2fbe
000000f0: 3894 38be 2d8e 473d c214 8bbd 748b 15be
00000100: 97a8 22be de2c debd 2a5d 22be b878 563b
00000110: b6de 0ebb 0140 5cbe 7a6f eebb c3a3 f4bc
00000120: 49b5 743d 11e1 d03e 8cd6 8abc 5df2 873c
00000130: b361 3ebd 8edf d1bd a463 8ebd 2d27 a93c
00000140: a2d8 203c e622 81bd 4884 29be ea6b fdbd
00000150: 15e9 34be 53cd 9c3d d7c2 263d 3704 f1bc
00000160: 1aac 9cbd 0250 17bd 8902 c5bd 9b4a eebd
00000170: f7e3 953c a3fc 483d be6a 42be 350b 5c3d
00000180: 45e9 c1bd def4 7c3d b8e2 423c 17c4 053d
00000190: 6ef5 3ebc d8c0 e43c cfb9 bf3e dc49 463d
000001a0: 7a7b b8bd 8964 94bd d409 7e3d 2b2c 983d
000001b0: f4b7 183c e6bf d03c f5ed a03d 9549 433d
000001c0: 5286 4dbe f6a4 fdbd 2db5 733d 7ac2 febd
000001d0: afa8 ec3e 5df7 673d addd acbd f65c 83bc
000001e0: 03fa 50be 8cd2 853d a564 17be 91c1 913b
000001f0: a7a9 9d3d 7621 8fbd 445d 5cbe b928 f0bb
