app/models/ml/model.pt (torch, 134921 bytes, 3 tensors)

net.0.weight f4 [128, 257]
000000 4e a2 fa bb b5 bc f6 3c f0 fe 7b 3c ab 11 20 bc
       -0.0076487428 0.03011928 0.015380606 -0.009769837
000010 6a 76 35 bd 87 85 2b bd 5a 43 fa 3c 1e 8b 09 3d
       -0.04430238 -0.04187539 0.030549694 0.033579938
000020 44 8e 39 bd b2 a1 24 bd 99 99 09 3d b5 8f 13 3d
       -0.04530169 -0.040193267 0.033593748 0.03602572
000030 5b 6f 90 bb 6e f4 70 3d 22 a1 30 bd a3 37 78 bc
       -0.004407806 0.058826856 -0.04312242 -0.015149984
000040 12 e7 6a bd c3 1a 9e bc bd 0a 13 bc 7c 15 35 3c
       -0.057349272 -0.01929987 -0.008974728 0.011052486
000050 ce eb d9 bc 2d be 00 3d b8 c0 a2 3c ee bc 9f 3c
       -0.026601698 0.031431366 0.019867286 0.019499268
000060 a2 c1 61 3d b6 09 d2 3c cb 63 64 3b 25 40 86 3c
       0.055116303 0.025639396 0.003484952 0.016388008
000070 2a a5 0f 3d 52 94 01 bd b9 a6 0f bd ec 7c 4e 3d
       0.035069622 -0.03163559 -0.03507111 0.050412104
000080 da 92 77 bd 70 9c 8e 3c 37 73 55 3d 64 37 5b 3d
       -0.060442783 0.01740858 0.05211183 0.05351962
000090 bd 1b 28 3d cc 6c 24 3d 65 57 66 bd ac 90 a0 3c
       0.04104208 0.04014282 -0.05623569 0.019600235
0000a0 cf 8c 2d 3c 89 5d 78 3c 40 b0 fd bc 71 05 69 3d
       0.010592653 0.015159019 -0.030967832 0.056889955
0000b0 14 e8 9d 3c 48 ee b8 3c cc d5 43 bd 8f be ae bc
       0.019275703 0.022574559 -0.047811314 -0.0213311
0000c0 85 f5 00 3d b7 88 0a 3d 4e c5 87 3b a5 78 27 bd
       0.031484146 0.033821788 0.0041433936 -0.04088654
0000d0 b3 85 60 3d c8 45 35 bd 6f 0a 6d 3d bd a4 f6 bb
       0.054815006 -0.044256 0.05787128 -0.0075269626
0000e0 48 04 f1 3c dd bc 98 bc 3b ac 16 bd 72 13 c0 3c
       0.029420987 -0.018644745 -0.036785346 0.023446772
0000f0 ce f1 b2 bb 77 14 1c 3d 60 4b 90 bc 77 e1 3e 3c
       -0.0054609543 0.038105454 -0.017614067 0.011650435
000100 ca 9d 46 3a 71 23 93 3b 8a d4 2c bd 40 2b 4d 3d
       0.0007576613 0.004490309 -0.04219488 0.050090075
000110 28 a3 5b bd f3 fe 15 bb fe 22 28 3d 78 5f f8 bc
       -0.053622395 -0.0022887557 0.041048996 -0.03031896
000120 f7 d6 00 3d d6 94 e2 bc e9 04 79 bd 3d 5f 60 3c
       0.031455006 -0.027658861 -0.0607957 0.013694582
000130 47 b5 4a bd 31 d9 6b 3b ad 56 7f 3c 80 9e 67 bd
       -0.049489286 0.003598761 0.01558463 -0.05654764
000140 df 49 dd bc 8b 14 1c bd 76 fc 9c bc c6 89 28 bd
       -0.027012764 -0.03810553 -0.019163352 -0.041147016
000150 ea d4 de bc b7 7b 22 3b 27 50 ba 3c 33 b0 49 3d
       -0.027201135 0.0024792978 0.022743298 0.049240302
000160 6d fa 0f bc d8 c9 13 bd a9 7a 94 bc 31 2a b1 3c
       -0.0087877335 -0.036081165 -0.018124895 0.021626564
000170 d1 37 63 bc 51 6b 33 bc 47 05 4b bc 3f fc e9 bb
       -0.013868288 -0.010950879 -0.012391395 -0.007140666
000180 06 1c 9f bb ec be 4d bd c2 ab 3c 3b 7c 3a e4 bc
       -0.0048556356 -0.050230905 0.00287889 -0.027859919
000190 f6 65 87 bc f4 15 35 bd 70 d7 dc 3c 6d 49 0d 38
       -0.016528111 -0.04421039 0.026958197 3.3685403e-05
0001a0 4e 0c 23 3d 9d 76 72 3d b7 41 de 3c 4c 2f 49 3d
       0.039806657 0.05919515 0.027130945 0.04911737
0001b0 12 dd 20 bd 1c 35 34 bd 50 fc 21 3d 43 df d6 bc
       -0.03927333 -0.04399596 0.039547265 -0.026229506
0001c0 b0 e3 8f bb 51 fd 37 bc a9 3f 08 3d 8e 20 72 3c
       -0.004391156 -0.011229829 0.033263836 0.014778269
0001d0 da 9c 04 3d de bc dd 3c 52 98 ee 3c fc 50 bf bc
       0.032376148 0.027067598 0.029125366 -0.023354046
0001e0 55 d7 56 3d bf 73 a3 bc d3 d1 10 3d ef 17 57 bb
       0.05245145 -0.019952653 0.035356354 -0.0032820662
0001f0 f7 d1 7c 3d 1d 82 11 3d 40 b4 7d bd af b0 38 3c
       0.061723676 0.035524476 -0.061939478 0.011272593
000200 ad 44 36 3c b5 51 5f 3d 64 e4 af 3a 2c ce 54 3d
       0.011124772 0.05452128 0.0013419506 0.051954433
000210 50 a0 83 3c 70 89 08 3d d7 ae 13 3d 0c 53 6e bc
       0.016067654 0.033334196 0.036055412 -0.014546167
000220 fa 20 94 bc 47 01 3d 3c ef cf b5 3a e3 ae 55 3d
       -0.01808213 0.011535949 0.0013871173 0.052168738
000230 12 5b 9e 3c f8 63 3f bd 9a 6e 46 bc 5c d8 6f bd
       0.019330535 -0.046726197 -0.01211133 -0.058555946
000240 f4 19 08 bc 55 dd b9 3c 2d da 0e 3c fa 9b 3e 3d
       -0.008306969 0.022688547 0.008719009 0.04653547
000250 6f 62 4d 3d 91 f8 35 bd 18 b1 83 3b e9 39 b1 3c
       0.0501427 -0.044426505 0.004018914 0.021634059
000260 32 b7 4e bd 4e 41 56 bd a2 c1 d2 bc 55 87 81 3c
       -0.050467677 -0.052308373 -0.025727097 0.015811602
000270 c8 4a e7 bc 09 e7 e1 3c 9d c5 fe 3c 71 64 79 3d
       -0.0282339 0.027575986 0.031100089 0.060886804
000280 b8 68 bf bc 97 72 41 3d d6 8b 79 3d 16 95 a5 3c
       -0.023365363 0.047228422 0.060924374 0.020212691
000290 d5 c2 b2 bc c7 59 60 bc 9e 55 e6 bc 1c 52 aa 3b
       -0.021821419 -0.01369328 -0.028116997 0.0051977765
0002a0 f7 08 de 3b 7c 98 7d bd 88 62 ca bc 14 88 4f bd
       0.006775971 -0.061913 -0.024705186 -0.050666884
0002b0 64 18 be 3c a2 15 22 bd d4 42 8d bc c0 ad f5 3c
       0.02320499 -0.039571412 -0.01724378 0.029990077
0002c0 f2 4d 53 bd 12 7a 97 3c 38 c6 56 3c cb 47 f4 3b
       -0.051588006 0.018490825 0.0131087825 0.0074548475
0002d0 81 27 58 3d 99 16 23 bd a7 17 99 bc 5c d1 30 3d
       0.05277205 -0.039816473 -0.018688036 0.04316841
0002e0 4c 78 61 3d aa e5 e3 3c 41 3e 23 3d 56 87 49 b9
       0.055046365 0.027819473 0.03985429 -0.0001921927
0002f0 b9 b5 5e bc 84 ad d4 3c f5 68 cd 3c 3c 06 ba bc
       -0.013593131 0.025961645 0.025074461 -0.02270805
000300 80 c1 07 bd 1b c5 0c bd fb 92 14 bd 99 ad 7d 3c
       -0.03314352 -0.034367662 -0.036272984 0.015483283
000310 7d 3b 96 3c 3e bc 5c 3a f3 1a 14 3d 01 91 4c 3d
       0.018338913 0.0008420384 0.036158513 0.049942974
000320 a8 fa 0b bd d5 d4 fc bc d5 02 35 3b 47 85 8d 3c
       -0.03417459 -0.030863205 0.0027620096 0.017275466
000330 e1 73 54 b9 75 fb 14 3d 06 10 ec bc ba 6b 6b 3d
       -0.00020261064 0.03637262 -0.028816234 0.057475783
000340 5a 88 31 bd 19 ec 9a bc 33 69 9c 3c aa 67 1d bd
       -0.043342926 -0.018911408 0.019093132 -0.03842894
000350 4d d4 19 3d e3 28 38 3d 6f be 43 bd de e1 08 3d
       0.03755598 0.044960868 -0.047789034 0.03341853
000360 b4 c4 11 3d 68 08 1d bc c3 fa a1 3c 5c 59 64 bd
       0.03558798 -0.009584524 0.019772893 -0.055749282
000370 e8 73 1c 3d 20 af 1b 3d fd 66 5f 3d d1 8e c3 ba
       0.038196474 0.03800881 0.054541577 -0.0014919882
000380 a4 c4 2d bd ea fe 65 bd c7 aa 62 bb 84 56 68 bd
       -0.04242386 -0.056151308 -0.0034586655 -0.056723133
000390 0e 1f 6d bd 6e 80 03 bd 61 6b 34 3b 33 d8 f5 bc
       -0.057890944 -0.032104902 0.0027529823 -0.030010318
0003a0 e7 7b 04 3d cb 87 67 bd 09 d8 68 3c cb f9 5d bd
       0.032344725 -0.056525987 0.014211663 -0.0541933
0003b0 d6 5a 96 3b 29 18 69 3d 60 17 5e bd d1 80 8d ba
       0.004588465 0.056907807 -0.05422151 -0.0010795837
0003c0 fd 6f 43 bd 86 6f e9 3c 39 27 a6 bc 65 94 f6 bc
       -0.047714222 0.028495561 -0.020282375 -0.030100057
0003d0 ba d5 25 bc d2 8f 1f bd 10 f7 3d 3d 79 03 72 bd
       -0.010121757 -0.038955517 0.046378195 -0.059085343
0003e0 02 2d bf 3c 04 84 ef bc ed b5 2d 3d 1c 71 20 bb
       0.023336891 -0.029237755 0.042409826 -0.002448148
0003f0 28 76 0b 3d 7c 13 30 bd 24 60 9e 3a db 22 4e bd
       0.03404823 -0.04298733 0.0012083095 -0.05032621

net.0.bias f4 [128]
000000 dc 1d 13 bc 41 9e a1 3e 4e b5 a0 3e 20 db 0a be
       -0.008979287 0.3156605 0.31388324 -0.13560152
000010 0c 21 c5 bc 7f e8 80 3e 10 60 82 be 81 9f a2 bc
       -0.02406361 0.2517738 -0.25463915 -0.019851448
000020 3e 1b 1f 3d 96 88 33 3e 5a 11 98 bc 5c ee 9c 3e
       0.03884434 0.17532572 -0.018562961 0.30650604
000030 a7 9c ea bc 46 35 8d be dd 31 cf bc 85 06 14 bd
       -0.02863915 -0.27579707 -0.025292331 -0.03613903
000040 68 a8 60 bb 3b 38 8a 3e 05 e2 cd 3e b3 9c 66 be
       -0.0034280065 0.26996025 0.40211502 -0.22520714
000050 ba 45 64 be 99 3c 77 3e 15 69 8f be 2d 15 b7 3e
       -0.22292224 0.2414421 -0.2800986 0.35758343
000060 33 32 3e 3d 93 6a 8b be c6 9d 66 3c bf 6b a6 3c
       0.046434592 -0.27229747 0.014075702 0.02031505
000070 61 81 90 be ca 15 75 3e 2e 91 46 3d 5f e4 38 be
       -0.28223708 0.23934093 0.048478298 -0.18055867
000080 80 b6 2b be c1 10 84 be 6e 31 e4 3e 65 f2 3f be
       -0.16768837 -0.25794032 0.44568962 -0.1874481
000090 c2 3d b8 3e ed d2 5d 3e 86 fb 18 3c 04 b3 2c 3c
       0.35984617 0.21662493 0.009337312 0.0105407275
0000a0 97 c9 75 be 51 fd 3b bc be 27 20 bd a1 3d da 3e
       -0.24002682 -0.01147397 -0.0391004 0.42625144
0000b0 e0 b2 77 bd 7a d3 48 bd 74 f6 69 3d 6f eb a6 3b
       -0.060473323 -0.049029805 0.0571198 0.005093984
0000c0 9b 38 58 3e 76 bd 76 bd 08 aa 09 bd 66 7e 7a be
       0.21115343 -0.060239278 -0.03360942 -0.2446228
0000d0 de 73 bd bc e8 88 63 bd 58 e9 45 3c d5 62 c8 3e
       -0.023126539 -0.055550486 0.012079559 0.39137903
0000e0 2c 29 44 bd e1 b6 3d 3e cb 2b b8 3e f3 62 cd 3e
       -0.047890827 0.18526794 0.3597091 0.40114555
0000f0 d2 61 3a 3e 44 6f fb 3c 9d 96 c3 3c d1 a3 9b 3e
       0.18201378 0.030692704 0.023875529 0.3039842
000100 1d f3 43 3d 68 7a 0a 3d 35 1a b3 bc 74 a8 d4 3e
       0.047839273 0.033808142 -0.021863082 0.4153477
000110 fa 1d 06 3d 02 3b 67 be 53 af 6c 3e 25 3b 3f be
       0.03274343 -0.22581103 0.23113756 -0.18674906
000120 94 ee 42 bd 1a 09 62 be a6 a3 af 3e 52 63 fa bc
       -0.047590807 -0.22073784 0.3430454 -0.030564938
000130 1d 52 4e bd c9 d9 29 bb 1f d1 19 bd f4 4d 59 bd
       -0.050371278 -0.0025917164 -0.03755295 -0.053052858
000140 13 80 ce 3e 8d 66 4f bd 0e ba 76 bd f4 0d 37 3d
       0.40332088 -0.05063491 -0.06023603 0.04469104
000150 af 7a 7f bd 82 ee 07 bd 9e 36 3e 3e d6 f3 8c 3e
       -0.06237286 -0.033186443 0.18575522 0.27529782
000160 52 78 84 be 05 14 1a be da 7f 10 3c 3e 26 83 be
       -0.25873047 -0.150467 0.008819545 -0.25615114
000170 04 fd 85 3e 27 fb 24 be 05 84 79 bd e7 89 32 3e
       0.26169598 -0.16111432 -0.06091692 0.17435418
000180 55 e2 ec bc ae 75 87 bc 42 45 8f bc fd b6 4d be
       -0.028916517 -0.016535606 -0.01748908 -0.20089336
000190 64 85 f0 3c 7e 1d 8d bc 38 c6 87 be 98 6f db 3c
       0.02936048 -0.017225977 -0.26518416 0.02678661
0001a0 3f e4 c7 bc 8f f7 49 3e 75 40 20 3d 80 53 86 be
       -0.024400828 0.19723342 0.03912397 -0.2623558
0001b0 10 7a 7e bd fe 0a 5f be da 09 f2 bc f9 7b 20 3e
       -0.062128127 -0.21781537 -0.029545713 0.15672292
0001c0 e4 0c 21 3c b0 2a 79 3d 5b 83 25 bc 04 a4 8b 3e
       0.0098297335 0.060831726 -0.010102118 0.27273571
0001d0 cb 4b c3 bc 75 aa 9d 3e 10 fa 57 3e e3 95 22 3e
       -0.023839852 0.3079411 0.21091485 0.1587749
0001e0 63 6a 8d be f9 d3 fb 3c c5 48 16 3e 7b c5 7c 3e
       -0.2762023 0.030740725 0.14676197 0.24684708
0001f0 92 58 f3 bc 0d cf 75 3e 56 e5 c9 bc 7d 6e e1 3c
       -0.02970532 0.24004765 -0.024645489 0.027518505

net.3.weight f4 [1, 128]
000000 ee 16 08 bc ad 9e 49 bd b5 72 90 bc 87 34 40 3d
       -0.008306248 -0.04922359 -0.017632822 0.046925094
000010 34 43 34 3b d7 c3 d2 bc 97 ed 18 3d 65 ba 0c bd
       0.0027505876 -0.02572815 0.03733596 -0.034357447
000020 97 39 1f 3d 92 4f b7 bd 1b 55 85 bc c5 c8 b7 bd
       0.03887328 -0.08950724 -0.016275933 -0.089738406
000030 aa 0e a9 3d 0e 5e a6 3d da 10 15 3d 81 41 d5 bc
       0.0825475 0.08123408 0.036393024 -0.026032211
000040 70 5e 3a 3c 51 df 87 bd 9c 64 07 be 3f ce fb 3c
       0.011375055 -0.06634391 -0.13221973 0.030737994
000050 a9 0a 96 3d 2f 8e 64 bc 3a 5b 95 3d d9 51 52 be
       0.07326252 -0.013949915 0.07292791 -0.20539035
000060 e3 1e 27 3d 23 d2 df 3c 1a 56 a8 3d 54 de 03 3d
       0.04080094 0.02732188 0.082195476 0.03219445
000070 5a 07 2c 3d b3 0c f1 bd 0f 22 5e bb b7 e1 5e 3d
       0.0419992 -0.1177 -0.0033894812 0.054414477
000080 80 a3 5f 3c 53 43 ab 3d 7e e6 88 be e6 da 59 3d
       0.013649821 0.083624505 -0.26738352 0.053187273
000090 6c c2 8a be 60 01 81 bd 87 7c 7f 3d 30 43 fe 3c
       -0.27101457 -0.062990904 0.062374618 0.031037897
0000a0 93 59 7c 3d 3b f7 4f bd ac 42 93 3d e0 43 c5 bd
       0.061608862 -0.050772887 0.07190451 -0.09632087
0000b0 d1 d7 8c 3c b8 76 ae bd f4 2d a6 bd 2e 8f 76 3a
       0.017192753 -0.085187376 -0.081142336 0.0009405491
0000c0 cb 7c 7c bd fe 9c 9d bd 9c 77 3e 3b 36 a7 a8 3d
       -0.06164245 -0.076959595 0.0029062992 0.08235018
0000d0 cf c0 2a 3b a7 f2 0c 3d 0b 42 75 3c ef 4d 93 be
       0.0026054864 0.0344111 0.014969359 -0.28770396
0000e0 92 e8 7d 3d 91 1e 50 bd a4 37 df bd b0 c1 6b be
       0.061989374 -0.0508104 -0.108992845 -0.23023105
0000f0 02 52 7f bd 49 4f df 3c 4e 97 3c 3c ba 6d 2c bd
       -0.062334068 0.027259486 0.011510683 -0.04209683
000100 c8 d9 c3 3c d6 d9 bd 3c 39 67 af 3c 83 9f 27 be
       0.023907557 0.023175161 0.021411525 -0.16369443
000110 84 86 7e 3d 19 d4 97 3b c5 4e af bd 1a e8 c6 3c
       0.062140003 0.0046334383 -0.08559946 0.024280597
000120 75 00 01 3d 4c b6 69 3d 81 cd 30 be 9f 6d 14 bd
       0.031494576 0.057058617 -0.17265894 -0.036237355
000130 5f 98 9e 3c b3 e5 c6 ba 23 20 01 3d 5d 12 db bc
       0.019359766 -0.0015174657 0.03152479 -0.026742155
000140 06 84 99 be 5d 97 f4 bc 4d 8d 48 3d 55 4e f2 bb
       -0.29983538 -0.029857332 0.04896288 -0.007394592
000150 23 94 01 3d 99 1b e8 3b 2b 64 98 bd bd d9 cb bd
       0.031635415 0.007083368 -0.074409805 -0.0995364
000160 02 24 ff 3c f5 69 eb 3d ab f6 b3 ba d1 58 68 3c
       0.0311451 0.11494819 -0.0013730129 0.014181332
000170 49 7e 34 be bb 45 02 3d 6c 1f 8f 3d 7f 28 06 bd
       -0.17626299 0.03180478 0.06988415 -0.032753464
000180 84 06 9a bd e9 bd 4f 3d 59 4a 72 3d 03 3e 14 3d
       -0.07520774 0.05071822 0.059152935 0.03619195
000190 76 58 ab bc 17 c8 34 3d ff a5 86 3d 18 a0 3f bd
       -0.020916205 0.044136133 0.0657463 -0.046783537
0001a0 f5 6b 15 3c 9d c5 a6 bd 7c f3 ef 3c b8 20 82 3d
       0.009119977 -0.081431605 0.029290907 0.06353897
0001b0 c4 7c 92 3d b8 5b 63 3d 4b 5d 4a bb 07 2b 97 bc
       0.071527034 0.05550739 -0.003087836 -0.018453134
0001c0 f6 cb b1 bb a7 8c a1 3d 09 f0 4b bc 51 f5 b7 bd
       -0.0054259254 0.078881554 -0.012447366 -0.08982337
0001d0 f7 2c 9e bd 1f bf 28 be 18 c4 6d bd 10 d9 b9 bc
       -0.0772342 -0.16479157 -0.058048338 -0.022686511
0001e0 c4 90 2b 3d 37 33 81 3c ef 85 30 bd 42 23 92 bd
       0.041886106 0.015771491 -0.04309648 -0.07135631
0001f0 78 51 90 bc be ff a3 bd 1b e2 7b 3c 68 8a a5 3d
       -0.017616972 -0.08007763 0.015373732 0.080830395
